saved/saved_model.pkl (torch_old, 48612 bytes, 9 tensors)

fc1.weight f4 [128, 6]
00000000: c907 2fbd 0268 8fbe b412 eabd 5425 cdbc
00000010: 8cb6 2ebe db75 fd3b 7161 d2bc 6f59 08bc
00000020: 24f8 913d 7d0b 50be 958a 98bd 785d 4bbe
00000030: e2d7 3abe 6c29 15bf d41f 06be 0dc1 163e
00000040: 6570 1ebc 0c0d 873d 6413 8d3e da34 b8be
00000050: 3c74 80be 6679 103c 94df 63be 4532 7cbe
00000060: 1118 3f3e 8a3c 063e 8b5c e6bd 1d35 39bd
00000070: c2da 3ebf 7474 b23e 364a c13c f403 bd3e
00000080: d11f 0b3d 544e 36be e45d b93e 39d4 6d3e
00000090: 0bca cd3e f64c b4be dee6 763e 1393 ca3e
000000a0: f295 0abe 94d0 18be c5cf 1f3e 0632 debe
000000b0: f682 bb3e 5b5c 35be ad7e aebe 7ba8 253e
000000c0: 09b0 433e 9082 963e d7bf 6abf 791f 713e
000000d0: b725 523e 12cd 07be ea6f 7cbd 179f 8abe
000000e0: 15ab eebe f29d bdbe ceb5 d63e 5297 a23e
000000f0: db82 4ebd 66c5 963e 88b3 1e3e 1477 733e
00000100: 01d2 99be 3892 893e bee2 7c3e 82ce 89be
00000110: aa1a 7bbd 4d8f 2ebd 1fd9 843d aff6 b03e
00000120: 1764 14bc de8d 8cbe 1509 763e 3bdd 87be
00000130: e8ce f53d 5665 98be 7c8b 56be 2595 ce3e
00000140: 4e87 c23e c73c f1be b01c d53e 8cff 65be
00000150: c869 e13d e0f6 1cbe b5db 853d caa0 a13e
00000160: 8da0 7bbe 6b6c 39be 68a9 00be 6881 6e3d
00000170: 5d0f 51bf 91da 7dbd e401 4f3d fd9f 873d
00000180: 7c39 b73d e92a 963e d7d6 91be 4736 bc3e
00000190: 206a f9bc ee20 ffbd 18f9 89be c450 953e
000001a0: c889 72be 170c 4bbe 2394 ddbd df58 c03b
000001b0: 19da cb3d b322 833e 7673 153d dd8c 543e
000001c0: 66ee d43e 8cab 70be c948 5a3e 547e 2d3e
000001d0: 0436 2b3c 9bcd 93bc b58f b1be 57b7 54be
000001e0: 1369 5fbe 9f36 19bf 19c3 6abd b548 b03e
000001f0: b24d 6d3e c841 ed3d 9c78 56be 9506 b13d
00000200: e236 1e3e 630f 7f3e 320f b7be c48e fb3e
00000210: 4e08 adbe 61d8 6fbe a224 703e 8dea 90be
00000220: 3a94 0fbc 71cc d03e ff79 dd3c 7b81 edbe
00000230: 17d0 a03e 0495 03be b8d0 e2bd ec70 53bd
00000240: 1ca7 55bd b562 0e3e 1f84 1abf f75e c23d
00000250: ee9f 9bbd 6513 c1bc 5c83 f03d 44f5 873e
00000260: 6557 5a3e 90ec 1abd 5f4e 49bf 11ab dbbe
00000270: ad9a 303e 7532 dc3e d4d3 78be 9cc0 6ebe
00000280: 6ea0 e3bc 13f6 0abf 4c06 40be 4233 403e
00000290: 657c 823e 818c 193e ab6f 8b3e 3382 983e
000002a0: 98e4 a3be 8901 7d3e 9579 ddba 61a5 82be
000002b0: 7271 383e a335 33be 89d4 8cbe a934 2fbe
000002c0: 1c9f b6be ae1a bebe bf98 21be 1048 b43e
000002d0: 5bb9 9c3e a1b6 863e ab1f 603c c365 b7be
000002e0: 879e 04be f7a2 293e 2f51 653e 8e22 49bd
000002f0: 0408 6a3e a4ec 4ebf 0285 49be 8fb1 1dbc
00000300: 6285 af3d 0f31 ec3c 23c1 9ebe 73a9 8bbe
00000310: 9a6d c8bd eb09 54be 13c7 a4be 4287 9e3e
00000320: 726a 603e d130 c53e 670d 8fbe 649a e5be
00000330: ac31 a03d e00c a2be 46f4 7fbe 1574 b0be
00000340: 76d8 3c3e 18ee 00bd 842b e7bc a41c a93e
00000350: a04b 9d3e c230 9f3e 214c a1bd 03bc 183c
00000360: 6da5 333e f1f4 653e 980c 80be 8004 72be
00000370: 8459 103e 954c 4cbe 2a88 64bd 858b f63d
00000380: 3925 46bc a22f 32bf 0e23 613d 6002 fdbd
00000390: 0b9f 183d bec6 91be 9413 a93d e3f7 a9ba
000003a0: b920 153e bf50 383d e626 b93e 4b73 8fbd
000003b0: 3c32 d4bd 9217 2bbf 3ae6 823e 58d3 a63e
000003c0: d687 ac3c 9c77 afbe 1fe5 2c3e f511 ddbe
000003d0: d52e fe3d 3744 863e 2e30 d03e 6653 96be
000003e0: a9a8 2bbf b081 f53d 82aa f6bd 2fe5 273d
000003f0: b552 a9be 6139 3d3e 2147 f9bd db25 033e
-0.042732034 -0.2800904 -0.114293486 -0.025042213 -0.17061824 0.0077349967 -0.02568123 -0.008322104
0.07127407 -0.20316882 -0.074483074 -0.19859874 -0.18246415 -0.5826633 -0.13098079 0.1472208
-0.009670352 0.06594285 0.27553856 -0.35977823 -0.2508868 0.008818006 -0.22253257 -0.24628551
0.18661524 0.13109031 -0.1124812 -0.04521667 -0.7455255 0.34854472 0.023594957 0.36917078
0.03396589 -0.17803317 0.36204445 0.23225488 0.4019321 -0.35214967 0.24111506 0.39565334
-0.13533762 -0.14923316 0.15606602 -0.4339754 0.36623353 -0.17711012 -0.3408102 0.16177551
0.19110121 0.29396486 -0.91698974 0.23547162 0.205222 -0.13261822 -0.061630167 -0.270745
-0.466149 -0.37034565 0.4193558 0.31756073 -0.050417762 0.29447478 0.15498173 0.23775893
-0.30043033 0.2686937 0.2469587 -0.26915365 -0.061304726 -0.04261713 0.06486725 0.34563205
-0.009057066 -0.27451986 0.24026902 -0.26535973 0.12002355 -0.29764813 -0.20951647 0.40348163
0.37993854 -0.47116682 0.4162345 -0.22460765 0.11006504 -0.1532855 0.065360464 0.31567985
-0.24572964 -0.18107764 -0.12564623 0.05822888 -0.8166407 -0.06197602 0.050538912 0.06622312
0.08946511 0.29329613 -0.28484222 0.3676016 -0.030446112 -0.12457453 -0.26947856 0.29163182
-0.23685372 -0.1982883 -0.108192705 0.0058699693 0.09953708 0.2561241 0.036487065 0.2075686
0.41588134 -0.2350294 0.21316828 0.16942722 0.01044989 -0.018042376 -0.34679952 -0.20773064
-0.21817426 -0.5984897 -0.057314966 0.3443047 0.2317417 0.115848124 -0.20944446 0.086438335
0.15450624 0.24908213 -0.3575378 0.4913236 -0.33795398 -0.23422386 0.23451474 -0.28303948
-0.008763367 0.40780976 0.027035711 -0.46387848 0.3140876 -0.12849814 -0.11074966 -0.051621363
-0.05216132 0.13904841 -0.6035785 0.09490769 -0.075988635 -0.023568818 0.11743805 0.2655431
0.21322401 -0.03782326 -0.7863521 -0.4290395 0.17246504 0.43007246 -0.24299556 -0.23315662
-0.02778646 -0.5428173 -0.18752402 0.18769553 0.2548553 0.14995004 0.27233633 0.29786834
-0.3201034 0.24707617 -0.0016897196 -0.255168 0.18012026 -0.1750093 -0.275059 -0.17109932
-0.35668266 -0.3712973 -0.15780924 0.3521123 0.30610165 0.2631121 0.013679425 -0.35819826
-0.12951098 0.16566072 0.2239425 -0.04910522 0.2285462 -0.80829835 -0.19679645 -0.009624853
0.08570363 0.028831987 -0.31006727 -0.27277717 -0.0978653 -0.20706908 -0.32183132 0.3096257
0.21915606 0.38513806 -0.27939913 -0.44844353 0.07821974 -0.31650448 -0.24995527 -0.34463564
0.18441948 -0.031477064 -0.028218992 0.33029664 0.3072176 0.31091887 -0.078758486 0.009322169
0.17543574 0.22456719 -0.25009608 -0.23634529 0.14096648 -0.19951089 -0.05579392 0.1203833
-0.0120938355 -0.6960393 0.05496507 -0.123539686 0.03726105 -0.2847194 0.08255687 -0.0012967553
0.14563264 0.04499888 0.3616249 -0.07004412 -0.10361144 -0.6683284 0.25566274 0.32583117
0.021060865 -0.34270942 0.16884278 -0.43177763 0.12411276 0.2622392 0.40661758 -0.29360503
-0.6705423 0.119876266 -0.120442405 0.04099005 -0.33070913 0.1847892 -0.1217177 0.1280741

fc1.bias f4 [128]
00000000: bf13 5e3e 5441 61be 9435 963e 213c eb3e
00000010: cb54 99be 7414 d0be 6d9b c0be 644a 773e
00000020: bc47 b2be c6ea 963e bd56 5bbd 82e9 8bbc
00000030: 7955 7b3e 1540 b2be d1ab c2bd 1300 e13e
00000040: 7670 92be 2cba 0ebe fe23 c8be 2a3f c3be
00000050: 1570 ffbd 178b 1bbe 94c8 bfbe 1325 903e
00000060: bc22 3a3e 219f a7bd b7f8 a5bc e232 cdbd
00000070: a055 083e 9edf 8dbe ff57 a8be 40be 043e
00000080: 47bd c03e e50c 613e a71d 4f3c eae7 6ebe
00000090: be05 9fbe c769 933e 731e 48be b2a6 8bbe
000000a0: 5d5a 6e3e c382 013d 6009 a0be c056 98bd
000000b0: bf1a a73e 47b0 62bd c82a a7bc 6504 7e3d
000000c0: ba27 a7be 6223 50be 5bad 12be 744f aebd
000000d0: 5e5e b8be aa8f 69ba dc62 723e 72da 763e
000000e0: 6eef 62be 9b81 543e 243b a23e bb0e 3e3e
000000f0: b660 e33d 1f44 8a3d 01a4 9bbd ff67 dbbd
00000100: 6f84 903d 4116 0c3e a500 c83c 7665 13be
00000110: 0c67 dcbd 449a c7be 61b4 a03e e95f 9f3d
00000120: 7b75 1d3e 932f edbd 94fd cabd b1e9 42be
00000130: 48bc 483e 709c aabd aec6 973e 415c a73e
00000140: 1b1c a9be 87cb 5f3e b6bb 053d e787 f5bd
00000150: 4970 c3bd cbfe d43e afe9 eb3e f7d5 48be
00000160: c469 033e 5132 56be 32ab cc3e a789 fdbd
00000170: 68e4 2cbe 6a21 a4bd 855f 9ebc 23f6 f2be
00000180: 0e35 e03d a5df 5d3e 2291 5fbe 4687 30be
00000190: c642 a7be 7c67 033e da1c 3a3d 63e7 a1be
000001a0: 18c1 d6be 5f14 4f3e fe22 613d b6b1 3b3e
000001b0: fb18 d53c 5179 7fbd 591a a23e 5722 803e
000001c0: c5fd 2abd ab81 c93e 91b5 0c3e 4608 303e
000001d0: 0ef8 26bd 4b3f 5bbe 51fc 85be 92cf cebe
000001e0: 89bf c7be 21ce c1be e83f 2bbe 1662 3fbd
000001f0: 95d4 8d3e fea8 b13d 29fd 95bd 1655 a63e
0.2168722 -0.21997577 0.29337752 0.45944312 -0.29947504 -0.40640604 -0.3761858 0.24149472
-0.34820354 0.29475993 -0.053549517 -0.017079119 0.24544324 -0.34814516 -0.09505428 0.4394537
-0.28601426 -0.13938206 -0.3908996 -0.38134128 -0.1247255 -0.15189777 -0.37457716 0.28153285
0.18177313 -0.08184648 -0.020260198 -0.10019471 0.13313913 -0.2770967 -0.32879636 0.129632
0.37644407 0.21977575 0.012641347 -0.23330656 -0.31059068 0.2879164 -0.19542865 -0.27275616
0.23276658 0.031618845 -0.31257153 -0.07438421 0.32637593 -0.055343892 -0.020406142 0.06201591
-0.32647496 -0.20325997 -0.14323942 -0.08511248 -0.36009496 -0.0008909652 0.23670524 0.24106768
-0.22161648 0.20752566 0.31685746 0.18560307 0.111024305 0.06751274 -0.07599641 -0.10713195
0.0705651 0.13680364 0.02441437 -0.14394173 -0.10761842 -0.38984883 0.31387618 0.07781965
0.15376846 -0.1158134 -0.099116474 -0.19034459 0.19603074 -0.08330619 0.29643768 0.32687572
-0.33029255 0.21854983 0.03264972 -0.11988812 -0.09542901 0.41600642 0.46076724 -0.19612871
0.12833315 -0.20917632 0.39974362 -0.12379771 -0.16884005 -0.08014186 -0.019332657 -0.47453412
0.109476194 0.21667345 -0.21832708 -0.17239103 -0.32668132 0.12832445 0.04543767 -0.31621847
-0.41944194 0.20222615 0.05496501 0.1832951 0.026012888 -0.062371556 0.31660727 0.250262
-0.04174592 0.3935674 0.13741137 0.17190656 -0.040763907 -0.21410863 -0.26169065 -0.4039274
-0.39013317 -0.37852576 -0.16723597 -0.0467244 0.2770125 0.08674811 -0.07323677 0.3248679

fc2.weight f4 [64, 128]
00000000: be73 4a3d bbb3 d43b 96c4 df3d d08d b93b
00000010: 7275 1f3e 9506 ddbd 883a 97bd 05d3 63bd
00000020: d8a8 f23e 0fec ecbc efc5 c5bd a9f1 f2bc
00000030: 1705 87bc 1bb9 33be bb68 843b ca4b 9d3e
00000040: f9c4 383d 4f5b 193d 7b48 32bc 2236 b63c
00000050: 138b 153e c311 e0bd e4bb 24bc 2a19 03bd
00000060: 4d96 be3e 3850 033e 3687 a63d 0737 febd
00000070: 5027 43bd 9a3a 33bd 1ce7 2b3e bb05 493e
00000080: 34a8 1c3e e87f f7bd f817 bf3d 84cf 87bc
00000090: f225 d3bc 34a0 8f3e fe54 a4bc 63ea 963e
000000a0: fe4f c6bd a29e 323e c91f ac3d 144a 123d
000000b0: 9e21 5c3e a21d 8a3d 1bae 4b3f 9607 c9ba
000000c0: 0bd9 06be bac9 393c 6bd8 bc3d 104a 8dbd
000000d0: 5648 e0bb 1bd4 3f3d 1cd2 e23d 55cd 363d
000000e0: c415 ba3d 2865 82bb 9822 cb3d 91a7 a4bb
000000f0: 3160 a73d 7a0b e6bc fe36 9ebc b271 bd3d
00000100: 5aa1 be3c 9c0a 273d 3c18 6b3d 354e c9bb
00000110: e59c 21bc 5966 2fbd d207 e13d de59 a5bd
00000120: b2db 423d 0082 29bd f659 3d3e 8cef 493d
00000130: 8c01 cf3e 833d a43c 0ede b2bc 463d aa3e
00000140: 1568 4dbc a501 973c a376 243e 5b4b 0fbe
00000150: e3b2 93bd b2fd 8cbc 1c58 dd3e ccf6 e13d
00000160: 6b0e a83e e39f 00bd ccf4 f43d 13eb 6e3e
00000170: 2ca8 65bd 78a9 823e 93df 293d 8aaf 203d
00000180: 2178 173e c94a c1bd 39b1 123f 1cc9 033e
00000190: fd99 b83d d3fc 553e f7fe 4f3e 9d16 e5bd
000001a0: b185 53be 9ea9 d63e 289b 893d 5692 6d3e
000001b0: 9e70 bb3d 0a03 623d 0b3c 213e 2164 87bc
000001c0: 1528 0abd e10e 19be edb4 403e b42d 013e
000001d0: 555c 763e 886f 253d d981 92bd 8ee1 5ebe
000001e0: 6b92 8abd d02d a33c c5d6 563d 5922 27be
000001f0: 5d0b 88bc 13d9 663e 6562 b9bd 9f5e e23d
00000200: 9173 2a3e 520d ad3c 72e7 02bc e008 1f3e
00000210: 4903 833d 37ef 4bbd b386 8dbe 4ecd 57be
00000220: 8143 85bf 9725 82bd 169a 06bd 55ee a2bd
00000230: 3079 5b3e 23a8 94be 573d 03be 056f 02bf
00000240: e9c9 4fbd 58e1 8abd 36ab e13d 761f 37bd
00000250: 0c11 a7bd 6bb5 49be 4899 49bd b150 e23d
00000260: 87e4 2abb dc55 33be c201 043e 8c2a 373c
00000270: 702f 18bc ff75 3cbd 8afc 80bd 9193 8fbe
00000280: b09e 173e 7fc1 393e 5bb0 aa3c bc41 8a3b
00000290: b015 d93d 5ba2 43be 9252 293d 283e 473a
000002a0: 86c6 b5bd 0f06 37be 39fa 4fbc 0d04 813c
000002b0: d175 023d 48e2 fcbb 5eed 603d 13fe 133a
000002c0: 6cca 1fbe 07dd a5bd e253 883d f0dc 3b3c
000002d0: 875c 213d 0fe7 ff3d eca6 aebe 9d67 cb3d
000002e0: 6bab afbe cd93 f83d 9fa8 8c3d c008 18be
000002f0: 3593 acbe 0bd8 eb3e 2a49 1d3e fdd5 293e
00000300: cc7a 833d 8a87 233e a5ec 20be 8f96 b33c
00000310: fc72 8cbd 94cd 953c 8e58 1dbe 2904 67be
00000320: e8eb 46be 4470 34be c98a 173f 11c6 b73c
00000330: 3684 1ebe 8a2d 36bd fced fe3d a620 6b3d
00000340: 5e12 473d 60b2 8a3d 6f30 a4bd d714 9c3c
00000350: bcfc 8fbd 94c2 5dbc a75d 9e3e 1bd1 3c3e
00000360: c432 8abe 6f16 49bc bc42 bbbe 1717 4fbe
00000370: cd82 70bd 417d b1be f48b abbd ad1e 30bd
00000380: 72d7 61be eb9c 383a 3035 15bf d2f2 95be
00000390: b40f 203d 1949 b5bc bcb2 e0bb 3350 febc
000003a0: 005d 213c 804d 80bd 67e1 bfbe 7b56 153c
000003b0: 3b01 5bbe d1ae f1bc f5ff 1cbe d259 9a3c
000003c0: 0873 2f3d 4b4d 053e a0f2 80be 85f4 ac3d
000003d0: 4edb f1be 14c7 a93d d6ad e23e 8c5f a7bd
000003e0: 6d06 923d 34ba 503c 6cb0 ecbd 03e1 7a3d
000003f0: c16a 963c ad85 a0be 21e6 9e3d 8ca2 40be
0.049426787 0.006491152 0.10926168 0.0056626573 0.15572146 -0.10792271 -0.07384211 -0.055621166
0.47394443 -0.028921155 -0.096568935 -0.029656248 -0.01648192 -0.17551081 0.004040805 0.30721885
0.045109723 0.037440594 -0.0108815385 0.02224261 0.14603834 -0.10940888 -0.010054562 -0.03200642
0.37224045 0.1282357 0.08131258 -0.124128394 -0.047644913 -0.04375706 0.1678738 0.19631092
0.1529854 -0.12084943 0.093307436 -0.016578443 -0.02577493 0.28051913 -0.020060059 0.29475698
-0.09683226 0.17443326 0.084045 0.035715178 0.21497199 0.06743933 0.7956254 -0.0015337344
-0.13168733 0.011339599 0.09220966 -0.06898892 -0.0068445606 0.04683314 0.110752314 0.044629414
0.09086183 -0.003979344 0.099187076 -0.0050248583 0.08172644 -0.028081644 -0.019313332 0.09250201
0.023270298 0.040781602 0.05739616 -0.006143356 -0.009864067 -0.042822216 0.1098782 -0.080737814
0.0475728 -0.041383743 0.18491349 0.049300715 0.40430868 0.020048862 -0.0218344 0.33249873
-0.012537022 0.018433401 0.16060881 -0.1399359 -0.07211854 -0.017210815 0.43231285 0.11033401
0.328235 -0.03140248 0.11960754 0.23331861 -0.056068584 0.2551992 0.041472983 0.039229907
0.1479192 -0.09438092 0.5730167 0.12869686 0.09013746 0.20897226 0.20312105 -0.11185954
-0.20656468 0.41926283 0.06719047 0.23200354 0.091523394 0.05517868 0.15745561 -0.016527237
-0.03372963 -0.14947082 0.18819018 0.1261509 0.2405866 0.040389568 -0.07153673 -0.2176573
-0.06766208 0.019919306 0.052450914 -0.16321696 -0.016606981 0.22543745 -0.090519704 0.11053204
0.16645648 0.021124516 -0.007989751 0.1553073 0.06397111 -0.04978868 -0.2764183 -0.21074411
-1.0411226 -0.06354826 -0.03286179 -0.079556145 0.21432948 -0.29034528 -0.12816368 -0.5095065
-0.050729666 -0.06781262 0.11018984 -0.044707738 -0.08157548 -0.19698112 -0.049218446 0.11050547
-0.0026076154 -0.17513222 0.12891296 0.011179578 -0.009288654 -0.046010967 -0.06298168 -0.28042272
0.14806628 0.18140219 0.020836046 0.004219262 0.1059984 -0.19104902 0.04133851 0.00076005096
-0.08875756 -0.17873405 -0.012693935 0.015749002 0.03185064 -0.0077174045 0.05491387 0.0005645465
-0.15604562 -0.08098798 0.066566244 0.01146625 0.03939488 0.12495243 -0.34111726 0.09931872
-0.3431047 0.12137566 0.068680994 -0.14847088 -0.3370606 0.46063265 0.15359941 0.16585536
0.06419906 0.15969673 -0.15715273 0.021922378 -0.06857869 0.018286504 -0.15365812 -0.2256018
-0.19425929 -0.17620951 0.59196144 0.022433313 -0.15480122 -0.044477023 0.12447736 0.057404183
0.0486015 0.067723036 -0.080170505 0.019052906 -0.07030627 -0.013535161 0.30930826 0.18439142
-0.26991856 -0.012273415 -0.36574352 -0.20223652 -0.05871849 -0.34665874 -0.08376303 -0.042998005
-0.22054842 0.00070424256 -0.5828428 -0.2928682 0.039077476 -0.022129582 -0.0068572443 -0.031044101
0.009848833 -0.06264782 -0.37476656 0.009114857 -0.21387188 -0.029502304 -0.15332015 0.018841658
0.04283431 0.13017766 -0.25185108 0.08445076 -0.4723763 0.08289924 0.4427325 -0.08172521
0.07130132 0.012739707 -0.11557087 0.061249744 0.018361451 -0.31351987 0.07758737 -0.18812007

fc2.bias f4 [64]
00000000: 8d2e 24bd e6a7 8f3d 9885 53bd 7ac4 353e
00000010: a37e a73e 3387 243e 5db8 423e df16 a7bd
00000020: 049e b7bc 3ed0 363d 386d e8bb 623f eb3c
00000030: 1c56 3abd 8a3d a13e 58ca 3f3c ba3e 4a3c
00000040: 1758 263d 833c e4bc f027 3f3d 81e8 acbc
00000050: f937 c7bd be64 4ebd b23e 42bd d110 4a3c
00000060: 8797 a73d cb83 bb3d aa2e 913e c50a 29bd
00000070: 67c5 1b3e 358a b83a d700 8d3d dd63 943e
00000080: b033 46bd ca69 4ebc e852 29bd 615e f9bd
00000090: f72e 153e 26da 9fbd d598 0abc cd37 2f3c
000000a0: 97bd 05bd ae83 ab3d 28b4 433d 271c f6bb
000000b0: 1146 7e3c cde8 843d 4da5 c23d c6d0 bdbc
000000c0: c3c0 1b3e fec3 7f3d 86fd e6bd cc8d 43bd
000000d0: 1d65 543e d221 1c3e 3972 c5bd 42d2 e5bd
000000e0: 673a 1b3d cb28 bb3d e620 0fbd 4a68 2a3d
000000f0: 62c5 d93b a1ae d33d 0d38 843e 629c 1bbd
-0.040083457 0.07014446 -0.051641077 0.17750731 0.32713804 0.160672 0.19015642 -0.08158659
-0.022414215 0.04463219 -0.007093098 0.028716747 -0.045492277 0.31492263 0.011705957 0.012344057
0.040611353 -0.027860885 0.046668947 -0.02110696 -0.09727473 -0.050389044 -0.047423072 0.012333111
0.081831984 0.09155997 0.28355914 -0.041270036 0.15212022 0.0014079275 0.06884926 0.2898244
-0.048389137 -0.012598464 -0.04133883 -0.121762045 0.14568697 -0.078052804 -0.00845929 0.010694456
-0.03265151 0.08374725 0.047779232 -0.0075106802 0.015519635 0.06489716 0.09504185 -0.02317084
0.15210252 0.062442772 -0.112788245 -0.04774265 0.20741697 0.15247276 -0.09640927 -0.11221744
0.037897494 0.0913864 -0.034943484 0.041603364 0.0066458443 0.10336042 0.25824013 -0.037990935

fc3.weight f4 [32, 64]
00000000: 8c31 0c3c 44e0 a6bd 15a9 12bc 8f43 1a3c
00000010: d706 173e 5765 f5bd 14f0 153e cabd 113d
00000020: 84f2 de3e f2b0 863e cdcd aa3c e714 a73d
00000030: c613 9abd 41ab 023e e779 7a3e e8fb 773d
00000040: db15 debd c9c8 8a3e 7e7b 9bbd 00c4 523b
00000050: dc67 383d 01dd 9c3d d83e 4c3d 4fd1 8abd
00000060: 2280 1d3e 8033 f4bd 3895 303e 6bc4 993c
00000070: 7117 2ebd 7bf6 5e3e c2c4 08be eed7 843d
00000080: f461 48bd b297 c83d cb6c 2e3e 351c 97bd
00000090: 166d 2abe ae07 d03a 1580 5d3e 32e6 ec3d
000000a0: 73f9 1d3e 8386 22bd ac8b e9be 125f 6abd
000000b0: f008 c6bd 3ae6 5dbe fefc b5bd 2447 883d
000000c0: 325d 3abd d9ae 00be cc61 0e3e 5be5 a9bd
000000d0: c75b 4bbe 4b9a 87bd 7189 133e 0e77 5ebe
000000e0: acc1 ddbd ada0 09be 3b0f 1ebd 95e6 7c3e
000000f0: aac4 74be 6347 a3bd 6cca 233e 77f7 443d
00000100: d931 08be 6e87 82bd 8a7a adbc 8ce8 60bc
00000110: f7da efbd 0b25 073e d248 09be 0279 94bd
00000120: a29a 5f3d 2dbf ff3d 18db da3d f254 ab3d
00000130: f885 d03c 216a 22be 4879 77bd 373f 8cbc
00000140: 93f6 5cbe 8a5b 333e d3e5 55be 7edc 33bd
00000150: 1862 ddbc 1111 0cbe b377 8dbd f4ba 66bd
00000160: d281 063e c162 a9bd b40e c9bd b2e7 523e
00000170: fab7 163d bd35 c23d 951c 773e 7631 98bd
00000180: 70ce 0abe c798 0c3e 6e1c f93d 8628 943d
00000190: f907 0cbf 6e9e f5bd 03a3 e2ba 74bb 40bd
000001a0: 6176 733c 4df6 cb3d 0824 ddbd 23ea 16ba
000001b0: a68e 013e 0eb9 7c3d c589 dfbd 29f7 32bd
000001c0: 9079 c4bd 9892 0ebe 7b1b 803d cc59 4f3c
000001d0: 507c 0cbf 1bea 6bbe 9719 19be 5181 8cbe
000001e0: 3df5 90bd a2ed 653e 9874 c4bd 7732 0abb
000001f0: ffba 313e 0d90 cfbd 1aff c8bd dce2 d0bc
00000200: 5575 f03b 56a9 553e 2a6b 8fbc d38f 113d
00000210: 03d8 253e fbd7 263e b0f6 583d 6d2a a33d
00000220: 80b5 c2be 6822 e6bd 9a80 8ebd 20cb ac3d
00000230: 20df d13b ffd1 323e e62a 11be db38 e2bc
00000240: 9109 053e 8a75 bcbd d5d9 db3b 078e 8ebd
00000250: 9584 8b3d 2a8e 173d 7f48 61be b884 d53d
00000260: 45be 22be fa43 373e 93b1 843e 4e24 e4bd
00000270: 3ce6 2cbd 2681 6bbe da9d f23d cfd7 3b3e
00000280: 29ae 54bd c3ca 94bd baf0 f4bc 9d78 fabb
00000290: cd50 0a3e d086 f2bd 6853 72be e719 ccbd
000002a0: 83f8 0bbe 52e6 b93d 3395 b03e f1f1 373d
000002b0: af94 d9bc 7eff 453e ea97 063e 2b6d 03bd
000002c0: ae88 133e 96f5 853d 82b9 4a3d 670e 15bd
000002d0: e37e 073e b832 3f3e d894 be3c 902f 2c3e
000002e0: c5e7 82bd 2154 023e ea97 ffbd 1538 5abe
000002f0: 7ea0 183e f629 043d 5195 973e 78f9 c73d
00000300: 0135 3f3d 147a 553e 9824 c5bd d77a 813e
00000310: 8755 733e 7b68 433e b9be 583e 9099 f13c
00000320: ebcc 83be 232c 93be cea9 cb3d 1fd0 303d
00000330: c4c7 573d 663e 783e fa14 a6bd 3698 90be
00000340: 18db 373e 6bc4 42be 1926 463e 1c5a 083e
00000350: 0e61 493d 9dad d6bd 1e59 51be 20f6 f03d
00000360: ae3e e4bd b1f7 d03e ea15 bb3d 086f 03be
00000370: 8531 273e 0460 23be 6891 4cbd 8c8e 203e
00000380: b09c 063d 7c76 d4bd b2a5 34bd 4c28 47bd
00000390: de9e 7c3e 8721 64bd 81f6 30be c564 cabd
000003a0: 4491 78be bf78 3c3e b128 103e 26ce 043c
000003b0: 994a edbc 2748 3c3e e3e9 be3a ea49 493b
000003c0: 58ae 6e3e 3200 b93d 6820 343d 0f8c 3dbd
000003d0: bd02 b23d 94ba 973d aa4b 5d3d cad5 873d
000003e0: b0f9 033b 59da 7cbc 8736 78bd ecb7 11be
000003f0: 6ca2 f3bd ef6c 2c3e 78e3 373e 3f4b d63d
0.008556735 -0.08148244 -0.008951445 0.009415521 0.14748703 -0.1198222 0.14642364 0.035581388
0.435444 0.26306874 0.020850087 0.08158284 -0.07523303 0.1276064 0.24460565 0.06054297
-0.10844012 0.27106312 -0.07591914 0.0032160282 0.045020923 0.07659341 0.04986462 -0.06778204
0.1538091 -0.11923885 0.17244422 0.018770417 -0.042502824 0.21773712 -0.13356307 0.06486498
-0.04892154 0.097945586 0.17033689 -0.07378427 -0.16643175 0.0015871429 0.2163089 0.11567344
0.15427189 -0.03967906 -0.45614374 -0.057219572 -0.096696734 -0.21669856 -0.08886145 0.06654194
-0.045499034 -0.12566699 0.13904494 -0.08295699 -0.19859229 -0.06621226 0.14407898 -0.21725103
-0.108279556 -0.13440199 -0.038588744 0.24697335 -0.23903146 -0.079726 0.15995187 0.048087563
-0.13300265 -0.063734874 -0.021176595 -0.0137273185 -0.11711686 0.13197725 -0.13406685 -0.07249643
0.05459083 0.12487636 0.1068632 0.083658114 0.025454506 -0.15860797 -0.060418397 -0.017119987
-0.21578436 0.17515388 -0.20888452 -0.04391145 -0.027024314 -0.13678385 -0.069075964 -0.056330636
0.1313546 -0.08270789 -0.098172575 0.20596197 0.036796547 0.09482906 0.24131997 -0.07431309
-0.13555312 0.13730155 0.12163626 0.07234292 -0.54699665 -0.11993109 -0.0017291013 -0.04705377
0.014859767 0.099590875 -0.10797888 -0.0005756935 0.12652072 0.06169992 -0.10914949 -0.04369274
-0.09593499 -0.13923109 0.062552415 0.012655687 -0.54877186 -0.23038523 -0.14951168 -0.2744241
-0.070780255 0.22453931 -0.09592551 -0.0021087208 0.1735649 -0.101348974 -0.09814282 -0.0254988
0.007338206 0.20865378 -0.017507154 0.035537552 0.16195683 0.16293328 0.052969635 0.079670765
-0.380291 -0.11237031 -0.069581226 0.084371805 0.0064047724 0.1746292 -0.1417652 -0.027615001
0.1299193 -0.09202106 0.006709317 -0.06960683 0.068123974 0.037000813 -0.22000311 0.10425705
-0.15892895 0.17897025 0.25916728 -0.11139737 -0.042211756 -0.22998485 0.11846514 0.18344043
-0.051923905 -0.07265236 -0.029899944 -0.0076437728 0.13507386 -0.1184212 -0.2366463 -0.09965878
-0.13669018 0.09077133 0.3448883 0.044908468 -0.026560156 0.19335744 0.13143888 -0.032086533
0.14407608 0.065409824 0.04949332 -0.03639069 0.13231997 0.18671691 0.023264334 0.16815019
-0.06391863 0.12727405 -0.12480147 -0.21310456 0.14904973 0.03226658 0.29606107 0.09764379
0.046681408 0.2084735 -0.0962612 0.25289032 0.23763095 0.19082825 0.21166505 0.02949217
-0.25742278 -0.2874461 0.09944497 0.04316723 0.052680746 0.24242553 -0.0810947 -0.28241128
0.17954671 -0.1902024 0.1935047 0.13315624 0.049164824 -0.10482333 -0.20444152 0.117656946
-0.11144768 0.40813974 0.09135039 -0.12835324 0.16327484 -0.15954596 -0.049943358 0.15679377
0.032864273 -0.103741616 -0.044103332 -0.048622414 0.24669978 -0.055696037 -0.17281534 -0.098825015
-0.24274164 0.18405436 0.14078023 0.00810579 -0.028966235 0.18386899 0.0014565553 0.0030714222
0.23308694 0.090332404 0.043976218 -0.04627615 0.086919285 0.07408634 0.054027237 0.06632574
0.002013784 -0.0154329175 -0.060598876 -0.14230317 -0.11896214 0.1683843 0.17957866 0.10463571

fc3.bias f4 [32]
00000000: 0ec4 71bb f46d a53e bae5 493e 3816 583e
00000010: b591 733e 220c 123e 18ec e43d 687c 403e
00000020: b8f8 61bd c8a3 f23d be29 d93d 41f2 b7bc
00000030: d308 8c3c 8acb c5bd 05c7 093c e75b 783e
00000040: 6b55 423e 550f f5bd 8a78 90bc bc23 7c3b
00000050: be46 bebd 5429 aa3d dc7c 6bbd 923e 493e
00000060: c3ce 033d c9ff cebc 67ae ce3c 4227 bd3d
00000070: 7dce db3c b114 15bc f977 cc3d 5317 8a3c
-0.003689054 0.3231045 0.1971654 0.21102226 0.23786052 0.14262441 0.11177844 0.18797457
-0.055168837 0.11847645 0.10603665 -0.022454383 0.017094051 -0.096579626 0.008409266 0.24253808
0.18977897 -0.11965815 -0.017635603 0.0038473448 -0.09290837 0.08308664 -0.057492122 0.19652775
0.032179605 -0.025268452 0.025229646 0.092360035 0.02683186 -0.0090991715 0.099838205 0.016856825

fc4.weight f4 [16, 32]
00000000: 6bd6 a8bd a567 8bbe 344b 753e 76f3 733e
00000010: efa7 8b3e caa6 70be 7756 fd3d 8525 853e
00000020: 6277 54bd 88dd 6f3e db18 093e 4058 c2bd
00000030: e60e c2bd c9ce 283e 6d22 8d3d 06e0 d3be
00000040: 9bfa 983d aaac 4ebd 6ea7 7abe 112b 57bd
00000050: 0d7e 1cbe a1b5 a0bd ad84 99bd ada7 013d
00000060: 3d3f 0cbe 5c98 633d f085 7b3d 48f9 30be
00000070: ced0 773d bdf7 9bbd 6567 7a3d d1cd a33e
00000080: 6b85 2c3e 56f9 6c3e 6e7b b3bd bb09 ab3d
00000090: 6357 123e f67a 483e 0bf6 f83c 23e9 0cbd
000000a0: 5a58 c0bc 7eae 003d 6887 31bc 78f4 dd3e
000000b0: ac85 bf3e 99d7 5bbd 5a61 40be ec82 fa3e
000000c0: 9052 053e e180 d63d 0e87 6a3d 1cd8 44be
000000d0: afb6 773d 6cf4 743e 227c 883e f448 a0bc
000000e0: 47c2 913e 6efd b1bd 91d6 85be 667c c73e
000000f0: 0dab a53e b362 23bd c504 433e bc9a c3bd
00000100: 4aa4 423e 24c7 7ebe de15 b83d 6ad0 6d3d
00000110: a7a2 c7bb a364 b53d 8bac 893b 5bf2 e23c
00000120: 6419 0cbe 9dd7 9d3c 5238 dcbd db59 d33e
00000130: 43cf 4b3e 0cfa 3cbd 84d1 64be 327d 6f3e
00000140: 85eb 80bc 5cfb debc 500a 9f3e 3cf3 04be
00000150: 82f7 c93d bfbe 493e 9cb9 383e 63a2 233e
00000160: 52b2 e0bc 6538 8ebc 0cd8 0bbe fa55 9d3e
00000170: 01a1 a53e ce6e 37bc bf99 593e 32b7 76bd
00000180: 7143 983e 6039 813d ef35 7fbd f2a8 28bc
00000190: c7b7 053d 42aa 423d 2391 ef3d 1752 b23d
000001a0: d8b1 e83d 7e56 afbd 5ca5 e13d abf3 9b3e
000001b0: d222 b43e 2d48 3abc 4781 89be 2792 fa3e
000001c0: 9b6c 143d f72b e43c 81d0 a33e 4f09 14be
000001d0: 55f4 823e 575f 633e a1ae 903e 1fd2 e6bc
000001e0: 59c9 b3bb 5aa6 09bd 7821 19be bf37 a23e
000001f0: 29f4 563e d7f8 7c3d 625e 2e3e d38a 19be
00000200: 9a38 443e 2cd2 55be d22e 0ebe 951f 1b3e
00000210: 5a50 083c e9d0 aa3e dd69 183e 2d75 85bd
00000220: fd56 023e 9d10 88bd 13f8 a33d fc9c d23e
00000230: 5308 863e 0871 823c 3bd1 f3bc ffd0 813e
00000240: f6e1 e7bd 2b0a c3bc e4de 453e a8ee 3bbe
00000250: b762 ac3e 9fea d73e f4a0 bc3e 853f b93c
00000260: 801a 6e3e 4f4f 993d 42be 2cbe 356c 6a3e
00000270: 71c9 743e 442d f83d f596 863e f40e c7bd
00000280: cbba 77be 8423 86be 4256 953e 6863 903e
00000290: 79b1 a23e 99f0 3abe d63a 2d3e 8b61 3c3c
000002a0: a807 2fbd 9b26 323e 9e8c a53e 6007 133e
000002b0: 92df f6bd d91a a13d 2f69 b73d 3f2b 8fbe
000002c0: 1463 673e efb8 c639 d921 0cbe cd6a 183e
000002d0: e04a 53be ae3f cbbc 66b1 ad3b 0338 713e
000002e0: b776 01be 9d2a e33d 5107 c33e 72a8 74be
000002f0: acf2 b53c 6ee1 0abe 25dc 333e ecdc 093d
00000300: d286 3dbe 92c9 90be 96b9 333e 7487 7c3e
00000310: 1efb 313e d9ba 9bbd 7a1a 993e 2a9d 8d3e
00000320: eabc b6bd cd4c 663e 60aa 173e 653a 50be
00000330: 261c 3bbd fe43 1fbe 780a a53e 9a85 bebe
00000340: edb2 9d3e dd8f 74bc 91d0 bf3c c3af 8b3d
00000350: da80 c5bd 6b57 3bbe 1fd7 ffbc 958e a83e
00000360: dcba 86bd c7c8 02bd 455f ad3e 1225 a0bd
00000370: 49ad 36be 57d8 0cbd a306 04bd 136b 953e
00000380: e3e3 963c 3068 c1be 5699 d13c ea0d cebc
00000390: 4df0 243e bb1a 31be 35f2 233e 124e 1f3e
000003a0: ac00 d53c cfc6 0a3e 9312 803e e618 023e
000003b0: b3c1 40be 503e e0bd 6937 403e 0ca7 86be
000003c0: a0cd 4bbd 23a8 b43d d252 d4bd 34e0 2e3e
000003d0: 0f04 e4bb f324 4dbe 2f14 c1bd eb0e 6b3e
000003e0: a66c 8bbd 0630 153e fe50 cd3d ba2b a8bc
000003f0: 570d a6bc 5022 e4bd 80f1 92bd f661 f63d
-0.08244022 -0.27227512 0.23954469 0.23823342 0.2727656 -0.23501125 0.123700075 0.26005188
-0.051871665 0.23424351 0.13388388 -0.094894886 -0.09475498 0.16485132 0.06891332 -0.41381854
0.07469674 -0.050457634 -0.24477932 -0.052531306 -0.1528246 -0.07847143 -0.07496009 0.03165405
-0.13695998 0.055565223 0.06140703 -0.17282593 0.060501866 -0.07615612 0.06113376 0.31992963
0.1684777 0.23141989 -0.08763777 0.08351465 0.14291148 0.19578156 0.03039076 -0.034402024
-0.02347963 0.03141641 -0.010835506 0.43350577 0.3740667 -0.053672407 -0.18787137 0.4892801
0.13019776 0.104738005 0.057257704 -0.19223064 0.060476955 0.23921365 0.26657206 -0.019566037
0.28468534 -0.08690916 -0.26140264 0.38962096 0.32357064 -0.03988905 0.19044788 -0.095509976
0.19007984 -0.24880654 0.08988546 0.058060087 -0.0060923877 0.088570856 0.004201477 0.027703455
-0.13681561 0.019267851 -0.1075293 0.41279492 0.19903283 -0.0461369 -0.22345549 0.23387602
-0.015737304 -0.027219467 0.31062555 -0.12983412 0.098616615 0.1970167 0.18039554 0.15979914
-0.02742878 -0.017360875 -0.13656634 0.30729657 0.323494 -0.0111958515 0.21250056 -0.060233302
0.29738954 0.063097715 -0.062307294 -0.010294186 0.032645967 0.04752565 0.116976045 0.08707064
0.11362046 -0.08561419 0.11017868 0.3045934 0.35182816 -0.011369747 -0.26856443 0.4893963
0.036236387 0.027852995 0.31995013 -0.14456676 0.25577036 0.22204338 0.2825823 -0.028176365
-0.005486649 -0.03360591 -0.14954174 0.31683156 0.20991577 0.06176075 0.17028192 -0.14994363
0.19162217 -0.20880955 -0.13885048 0.15148766 0.008319939 0.3336251 0.14884134 -0.0651649
0.12728496 -0.06643794 0.08006301 0.41135395 0.26178226 0.015923038 -0.029762855 0.25354764
-0.113223955 -0.02380856 0.19323307 -0.18352759 0.33669063 0.4217119 0.36841547 0.022613296
0.23252296 0.0748583 -0.16869453 0.2289284 0.23904969 0.12118009 0.26287046 -0.09719649
-0.2419235 -0.2619897 0.29167372 0.2820084 0.31776026 -0.18255843 0.16916975 0.011497865
-0.04273191 0.1739754 0.32333845 0.14358282 -0.120543614 0.07866449 0.08955609 -0.27962682
0.22596389 0.0003790329 -0.13684787 0.14884491 -0.20634031 -0.024810638 0.0053006886 0.23556523
-0.12642942 0.11092112 0.3809152 -0.23892382 0.022210442 -0.13562557 0.17564447 0.033657953
-0.18508461 -0.28278786 0.17551264 0.24661046 0.1738095 -0.07603998 0.29903013 0.2765897
-0.08922751 0.22490235 0.14811087 -0.20334776 -0.04568114 -0.1555328 0.3223455 -0.37211305
0.30800572 -0.014926878 0.023414882 0.06820633 -0.09643717 -0.18295066 -0.031230507 0.3292128
-0.06578609 -0.031929757 0.33861747 -0.078195706 -0.1783954 -0.034386005 -0.03223289 0.29183254
0.018419212 -0.377748 0.025585812 -0.02515312 0.16107292 -0.17295353 0.16010363 0.15557125
0.026001297 0.13552402 0.2501417 0.1270481 -0.1882389 -0.10949385 0.18771137 -0.26299322
-0.049756646 0.08821132 -0.10367359 0.17077714 -0.0069584916 -0.20033626 -0.09427678 0.2295491
-0.068078324 0.145691 0.10025214 -0.020528663 -0.020270033 -0.11139357 -0.07174969 0.12030403

fc4.bias f4 [16]
00000000: 39e0 b63e 99de d33d bd27 b9bd f5d7 4b3e
00000010: 86d9 9e3d 98a2 4c3d bae1 873e cbd6 b13d
00000020: d214 24be 8116 3f3e 5f79 eebc f157 3a3e
00000030: 7ba4 213d 784a 18be 0242 143e 07d1 7e3e
0.35717943 0.103451915 -0.090407826 0.199066 0.07756333 0.04995975 0.26539403 0.08683547
-0.16023567 0.18660928 -0.029110609 0.1819761 0.0394635 -0.14872158 0.14478305 0.24884425

fc5.weight f4 [1, 16]
00000000: 0f27 36be ea50 423e d392 813e 39ea af3e
00000010: 06aa a13e 09e4 afbe 3acb aebe f6f4 d6bd
00000020: 3ddd 643e b009 343e d2ef ebbd cbd0 40be
00000030: 6dd7 3cbe c0c5 aabc 92ab 7ebe 369a b43e
-0.17788337 0.18976179 0.2530733 0.34358385 0.3157503 -0.34353665 -0.34139425 -0.10495941
0.2235002 0.1758182 -0.115203515 -0.18829648 -0.18441553 -0.020846248 -0.24870136 0.35273904
